…
th './data/exprs_valid.json' --sub_expr_train_path './data/exprs_seperated_train.json' --sub_expr_valid_path './data/exprs_seperated_valid.json' --decode_physical_units 'single-seq' --use_hints 'units,complexity,unarys,consts' --random_variables_sequence 0 --max_trials 10 --generate_datapoints_distribution 'positive,multi' --rescale 0

INFO - 01/27/26 19:45:42 - 0:00:21 - vocabulary: 10570 float words, 10570 equation words
INFO - 01/27/26 19:45:42 - 0:00:21 - Training tasks: functions
DEBUG - 01/27/26 19:45:43 - 0:00:21 - LinearPointEmbedder(
                                        (embeddings): Embedding(10570, 64, padding_idx=9, sparse=False, scale_grad_by_freq=False)
                                        (hidden_layers): LayerList(
                                          (0): Linear(in_features=2240, out_features=2240, bias=True)
                                        )
                                        (fc): Linear(in_features=2240, out_features=512, bias=True)
                                      ): LinearPointEmbedder(
                                        (embeddings): Embedding(10570, 64, padding_idx=9, sparse=False, scale_grad_by_freq=False)
                                        (hidden_layers): LayerList(
                                          (0): Linear(in_features=2240, out_features=2240, bias=True)
                                        )
                                        (fc): Linear(in_features=2240, out_features=512, bias=True)
                                      )
DEBUG - 01/27/26 19:45:43 - 0:00:21 - TransformerModel(
                                        (layer_norm_emb): LayerNorm(normalized_shape=[512], epsilon=1e-12)
                                        (attentions): LayerList(
                                          (0): MultiHeadAttention(
                                            (q_lin): Linear(in_features=512, out_features=512, bias=True)
                                            (k_lin): Linear(in_features=512, out_features=512, bias=True)
                                            (v_lin): Linear(in_features=512, out_features=512, bias=True)
                                            (out_lin): Linear(in_features=512, out_features=512, bias=True)
                                          )
                                          (1): MultiHeadAttention(
                                            (q_lin): Linear(in_features=512, out_features=512, bias=True)
                                            (k_lin): Linear(in_features=512, out_features=512, bias=True)
                                            (v_lin): Linear(in_features=512, out_features=512, bias=True)
                                            (out_lin): Linear(in_features=512, out_features=512, bias=True)
                                          )
                                        )
                                        (layer_norm1): LayerList(
                                          (0): LayerNorm(normalized_shape=[512], epsilon=1e-12)
                                          (1): LayerNorm(normalized_shape=[512], epsilon=1e-12)
                                        )
                                        (ffns): LayerList(
                                          (0): TransformerFFN(
                                            (midlin): LayerList()
                                            (lin1): Linear(in_features=512, out_features=2048, bias=True)
                                            (lin2): Linear(in_features=2048, out_features=512, bias=True)
                                          )
                                          (1): TransformerFFN(
                                            (midlin): LayerList()
                                            (lin1): Linear(in_features=512, out_features=2048, bias=True)
                                            (lin2): Linear(in_features=2048, out_features=512, bias=True)
                                          )
                                        )
                                        (layer_norm2): LayerList(
                                          (0): LayerNorm(normalized_shape=[512], epsilon=1e-12)
                                          (1): LayerNorm(normalized_shape=[512], epsilon=1e-12)
                                        )
                                      ): TransformerModel(
                                        (layer_norm_emb): LayerNorm(normalized_shape=[512], epsilon=1e-12)
                                        (attentions): LayerList(
                                          (0): MultiHeadAttention(
                                            (q_lin): Linear(in_features=512, out_features=512, bias=True)
                                            (k_lin): Linear(in_features=512, out_features=512, bias=True)
                                            (v_lin): Linear(in_features=512, out_features=512, bias=True)
                                            (out_lin): Linear(in_features=512, out_features=512, bias=True)
                                          )
                                          (1): MultiHeadAttention(
                                            (q_lin): Linear(in_features=512, out_features=512, bias=True)
                                            (k_lin): Linear(in_features=512, out_features=512, bias=True)
                                            (v_lin): Linear(in_features=512, out_features=512, bias=True)
                                            (out_lin): Linear(in_features=512, out_features=512, bias=True)
                                          )
                                        )
                                        (layer_norm1): LayerList(
                                          (0): LayerNorm(normalized_shape=[512], epsilon=1e-12)
                                          (1): LayerNorm(normalized_shape=[512], epsilon=1e-12)
                                        )
                                        (ffns): LayerList(
                                          (0): TransformerFFN(
                                            (midlin): LayerList()
                                            (lin1): Linear(in_features=512, out_features=2048, bias=True)
                                            (lin2): Linear(in_features=2048, out_features=512, bias=True)
                                          )
                                          (1): TransformerFFN(
                                            (midlin): LayerList()
                                            (lin1): Linear(in_features=512, out_features=2048, bias=True)
                                            (lin2): Linear(in_features=2048, out_features=512, bias=True)
                                          )
                                        )
                                        (layer_norm2): LayerList(
                                          (0): LayerNorm(normalized_shape=[512], epsilon=1e-12)
                                          (1): LayerNorm(normalized_shape=[512], epsilon=1e-12)
                                        )
                                      )
DEBUG - 01/27/26 19:45:43 - 0:00:21 - TransformerModel(
                                        (position_embeddings): Embedding(4096, 512, sparse=False, scale_grad_by_freq=False)
                                        (embeddings): Embedding(10570, 512, padding_idx=9, sparse=False, scale_grad_by_freq=False)
                                        (layer_norm_emb): LayerNorm(normalized_shape=[512], epsilon=1e-12)
                                        (attentions): LayerList(
                                          (0): MultiHeadAttention(
                                            (q_lin): Linear(in_features=512, out_features=512, bias=True)
                                            (k_lin): Linear(in_features=512, out_features=512, bias=True)
                                            (v_lin): Linear(in_features=512, out_features=512, bias=True)
                                            (out_lin): Linear(in_features=512, out_features=512, bias=True)
                                          )
                                          (1): MultiHeadAttention(
                                            (q_lin): Linear(in_features=512, out_features=512, bias=True)
                                            (k_lin): Linear(in_features=512, out_features=512, bias=True)
                                            (v_lin): Linear(in_features=512, out_features=512, bias=True)
                                            (out_lin): Linear(in_features=512, out_features=512, bias=True)
                                          )
                                          (2): MultiHeadAttention(
                                            (q_lin): Linear(in_features=512, out_features=512, bias=True)
                                            (k_lin): Linear(in_features=512, out_features=512, bias=True)
                                            (v_lin): Linear(in_features=512, out_features=512, bias=True)
                                            (out_lin): Linear(in_features=512, out_features=512, bias=True)
                                          )
                                          (3): MultiHeadAttention(
                                            (q_lin): Linear(in_features=512, out_features=512, bias=True)
                                            (k_lin): Linear(in_features=512, out_features=512, bias=True)
                                            (v_lin): Linear(in_features=512, out_features=512, bias=True)
                                            (out_lin): Linear(in_features=512, out_features=512, bias=True)
                                          )
                                          (4): MultiHeadAttention(
                                            (q_lin): Linear(in_features=512, out_features=512, bias=True)
                                            (k_lin): Linear(in_features=512, out_features=512, bias=True)
                                            (v_lin): Linear(in_features=512, out_features=512, bias=True)
                                            (out_lin): Linear(in_features=512, out_features=512, bias=True)
                                          )
                                          (5): MultiHeadAttention(
                                            (q_lin): Linear(in_features=512, out_features=512, bias=True)
                                            (k_lin): Linear(in_features=512, out_features=512, bias=True)
                                            (v_lin): Linear(in_features=512, out_features=512, bias=True)
                                            (out_lin): Linear(in_features=512, out_features=512, bias=True)
                                          )
                                          (6): MultiHeadAttention(
                                            (q_lin): Linear(in_features=512, out_features=512, bias=True)
                                            (k_lin): Linear(in_features=512, out_features=512, bias=True)
                                            (v_lin): Linear(in_features=512, out_features=512, bias=True)
                                            (out_lin): Linear(in_features=512, out_features=512, bias=True)
                                          )
                                          (7): MultiHeadAttention(
                                            (q_lin): Linear(in_features=512, out_features=512, bias=True)
                                            (k_lin): Linear(in_features=512, out_features=512, bias=True)
                                            (v_lin): Linear(in_features=512, out_features=512, bias=True)
                                            (out_lin): Linear(in_features=512, out_features=512, bias=True)
                                          )
                                          (8): MultiHeadAttention(
                                            (q_lin): Linear(in_features=512, out_features=512, bias=True)
                                            (k_lin): Linear(in_features=512, out_features=512, bias=True)
                                            (v_lin): Linear(in_features=512, out_features=512, bias=True)
                                            (out_lin): Linear(in_features=512, out_features=512, bias=True)
                                          )
                                          (9): MultiHeadAttention(
                                            (q_lin): Linear(in_features=512, out_features=512, bias=True)
                                            (k_lin): Linear(in_features=512, out_features=512, bias=True)
                                            (v_lin): Linear(in_features=512, out_features=512, bias=True)
                                            (out_lin): Linear(in_features=512, out_features=512, bias=True)
                                          )
                                          (10): MultiHeadAttention(
                                            (q_lin): Linear(in_features=512, out_features=512, bias=True)
                                            (k_lin): Linear(in_features=512, out_features=512, bias=True)
                                            (v_lin): Linear(in_features=512, out_features=512, bias=True)
                                            (out_lin): Linear(in_features=512, out_features=512, bias=True)
                                          )
                                          (11): MultiHeadAttention(
                                            (q_lin): Linear(in_features=512, out_features=512, bias=True)
                                            (k_lin): Linear(in_features=512, out_features=512, bias=True)
                                            (v_lin): Linear(in_features=512, out_features=512, bias=True)
                                            (out_lin): Linear(in_features=512, out_features=512, bias=True)
                                          )
                                          (12): MultiHeadAttention(
                                            (q_lin): Linear(in_features=512, out_features=512, bias=True)
                                            (k_lin): Linear(in_features=512, out_features=512, bias=True)
                                            (v_lin): Linear(in_features=512, out_features=512, bias=True)
                                            (out_lin): Linear(in_features=512, out_features=512, bias=True)
                                          )
                                          (13): MultiHeadAttention(
                                            (q_lin): Linear(in_features=512, out_features=512, bias=True)
                                            (k_lin): Linear(in_features=512, out_features=512, bias=True)
                                            (v_lin): Linear(in_features=512, out_features=512, bias=True)
                                            (out_lin): Linear(in_features=512, out_features=512, bias=True)
                                          )
                                          (14): MultiHeadAttention(
                                            (q_lin): Linear(in_features=512, out_features=512, bias=True)
                                            (k_lin): Linear(in_features=512, out_features=512, bias=True)
                                            (v_lin): Linear(in_features=512, out_features=512, bias=True)
                                            (out_lin): Linear(in_features=512, out_features=512, bias=True)
                                          )
                                          (15): MultiHeadAttention(
                                            (q_lin): Linear(in_features=512, out_features=512, bias=True)
                                            (k_lin): Linear(in_features=512, out_features=512, bias=True)
                                            (v_lin): Linear(in_features=512, out_features=512, bias=True)
                                            (out_lin): Linear(in_features=512, out_features=512, bias=True)
                                          )
                                        )
                                        (layer_norm1): LayerList(
                                          (0): LayerNorm(normalized_shape=[512], epsilon=1e-12)
                                          (1): LayerNorm(normalized_shape=[512], epsilon=1e-12)
                                          (2): LayerNorm(normalized_shape=[512], epsilon=1e-12)
                                          (3): LayerNorm(normalized_shape=[512], epsilon=1e-12)
                                          (4): LayerNorm(normalized_shape=[512], epsilon=1e-12)
                                          (5): LayerNorm(normalized_shape=[512], epsilon=1e-12)
                                          (6): LayerNorm(normalized_shape=[512], epsilon=1e-12)
                                          (7): LayerNorm(normalized_shape=[512], epsilon=1e-12)
                                          (8): LayerNorm(normalized_shape=[512], epsilon=1e-12)
                                          (9): LayerNorm(normalized_shape=[512], epsilon=1e-12)
                                          (10): LayerNorm(normalized_shape=[512], epsilon=1e-12)
                                          (11): LayerNorm(normalized_shape=[512], epsilon=1e-12)
                                          (12): LayerNorm(normalized_shape=[512], epsilon=1e-12)
                                          (13): LayerNorm(normalized_shape=[512], epsilon=1e-12)
                                          (14): LayerNorm(normalized_shape=[512], epsilon=1e-12)
                                          (15): LayerNorm(normalized_shape=[512], epsilon=1e-12)
                                        )
                                        (ffns): LayerList(
                                          (0): TransformerFFN(
                                            (midlin): LayerList()
                                            (lin1): Linear(in_features=512, out_features=2048, bias=True)
                                            (lin2): Linear(in_features=2048, out_features=512, bias=True)
                                          )
                                          (1): TransformerFFN(
                                            (midlin): LayerList()
                                            (lin1): Linear(in_features=512, out_features=2048, bias=True)
                                            (lin2): Linear(in_features=2048, out_features=512, bias=True)
                                          )
                                          (2): TransformerFFN(
                                            (midlin): LayerList()
                                            (lin1): Linear(in_features=512, out_features=2048, bias=True)
                                            (lin2): Linear(in_features=2048, out_features=512, bias=True)
                                          )
                                          (3): TransformerFFN(
                                            (midlin): LayerList()
                                            (lin1): Linear(in_features=512, out_features=2048, bias=True)
                                            (lin2): Linear(in_features=2048, out_features=512, bias=True)
                                          )
                                          (4): TransformerFFN(
                                            (midlin): LayerList()
                                            (lin1): Linear(in_features=512, out_features=2048, bias=True)
                                            (lin2): Linear(in_features=2048, out_features=512, bias=True)
                                          )
                                          (5): TransformerFFN(
                                            (midlin): LayerList()
                                            (lin1): Linear(in_features=512, out_features=2048, bias=True)
                                            (lin2): Linear(in_features=2048, out_features=512, bias=True)
                                          )
                                          (6): TransformerFFN(
                                            (midlin): LayerList()
                                            (lin1): Linear(in_features=512, out_features=2048, bias=True)
                                            (lin2): Linear(in_features=2048, out_features=512, bias=True)
                                          )
                                          (7): TransformerFFN(
                                            (midlin): LayerList()
                                            (lin1): Linear(in_features=512, out_features=2048, bias=True)
                                            (lin2): Linear(in_features=2048, out_features=512, bias=True)
                                          )
                                          (8): TransformerFFN(
                                            (midlin): LayerList()
                                            (lin1): Linear(in_features=512, out_features=2048, bias=True)
                                            (lin2): Linear(in_features=2048, out_features=512, bias=True)
                                          )
                                          (9): TransformerFFN(
                                            (midlin): LayerList()
                                            (lin1): Linear(in_features=512, out_features=2048, bias=True)
                                            (lin2): Linear(in_features=2048, out_features=512, bias=True)
                                          )
                                          (10): TransformerFFN(
                                            (midlin): LayerList()
                                            (lin1): Linear(in_features=512, out_features=2048, bias=True)
                                            (lin2): Linear(in_features=2048, out_features=512, bias=True)
                                          )
                                          (11): TransformerFFN(
                                            (midlin): LayerList()
                                            (lin1): Linear(in_features=512, out_features=2048, bias=True)
                                            (lin2): Linear(in_features=2048, out_features=512, bias=True)
                                          )
                                          (12): TransformerFFN(
                                            (midlin): LayerList()
                                            (lin1): Linear(in_features=512, out_features=2048, bias=True)
                                            (lin2): Linear(in_features=2048, out_features=512, bias=True)
                                          )
                                          (13): TransformerFFN(
                                            (midlin): LayerList()
                                            (lin1): Linear(in_features=512, out_features=2048, bias=True)
                                            (lin2): Linear(in_features=2048, out_features=512, bias=True)
                                          )
                                          (14): TransformerFFN(
                                            (midlin): LayerList()
                                            (lin1): Linear(in_features=512, out_features=2048, bias=True)
                                            (lin2): Linear(in_features=2048, out_features=512, bias=True)
                                          )
                                          (15): TransformerFFN(
                                            (midlin): LayerList()
                                            (lin1): Linear(in_features=512, out_features=2048, bias=True)
                                            (lin2): Linear(in_features=2048, out_features=512, bias=True)
                                          )
                                        )
                                        (layer_norm2): LayerList(
                                          (0): LayerNorm(normalized_shape=[512], epsilon=1e-12)
                                          (1): LayerNorm(normalized_shape=[512], epsilon=1e-12)
                                          (2): LayerNorm(normalized_shape=[512], epsilon=1e-12)
                                          (3): LayerNorm(normalized_shape=[512], epsilon=1e-12)
                                          (4): LayerNorm(normalized_shape=[512], epsilon=1e-12)
                                          (5): LayerNorm(normalized_shape=[512], epsilon=1e-12)
                                          (6): LayerNorm(normalized_shape=[512], epsilon=1e-12)
                                          (7): LayerNorm(normalized_shape=[512], epsilon=1e-12)
                                          (8): LayerNorm(normalized_shape=[512], epsilon=1e-12)
                                          (9): LayerNorm(normalized_shape=[512], epsilon=1e-12)
                                          (10): LayerNorm(normalized_shape=[512], epsilon=1e-12)
                                          (11): LayerNorm(normalized_shape=[512], epsilon=1e-12)
                                          (12): LayerNorm(normalized_shape=[512], epsilon=1e-12)
                                          (13): LayerNorm(normalized_shape=[512], epsilon=1e-12)
                                          (14): LayerNorm(normalized_shape=[512], epsilon=1e-12)
                                          (15): LayerNorm(normalized_shape=[512], epsilon=1e-12)
                                        )
                                        (layer_norm15): LayerList(
                                          (0): LayerNorm(normalized_shape=[512], epsilon=1e-12)
                                          (1): LayerNorm(normalized_shape=[512], epsilon=1e-12)
                                          (2): LayerNorm(normalized_shape=[512], epsilon=1e-12)
                                          (3): LayerNorm(normalized_shape=[512], epsilon=1e-12)
                                          (4): LayerNorm(normalized_shape=[512], epsilon=1e-12)
                                          (5): LayerNorm(normalized_shape=[512], epsilon=1e-12)
                                          (6): LayerNorm(normalized_shape=[512], epsilon=1e-12)
                                          (7): LayerNorm(normalized_shape=[512], epsilon=1e-12)
                                          (8): LayerNorm(normalized_shape=[512], epsilon=1e-12)
                                          (9): LayerNorm(normalized_shape=[512], epsilon=1e-12)
                                          (10): LayerNorm(normalized_shape=[512], epsilon=1e-12)
                                          (11): LayerNorm(normalized_shape=[512], epsilon=1e-12)
                                          (12): LayerNorm(normalized_shape=[512], epsilon=1e-12)
                                          (13): LayerNorm(normalized_shape=[512], epsilon=1e-12)
                                          (14): LayerNorm(normalized_shape=[512], epsilon=1e-12)
                                          (15): LayerNorm(normalized_shape=[512], epsilon=1e-12)
                                        )
                                        (encoder_attn): LayerList(
                                          (0): MultiHeadAttention(
                                            (q_lin): Linear(in_features=512, out_features=512, bias=True)
                                            (k_lin): Linear(in_features=512, out_features=512, bias=True)
                                            (v_lin): Linear(in_features=512, out_features=512, bias=True)
                                            (out_lin): Linear(in_features=512, out_features=512, bias=True)
                                          )
                                          (1): MultiHeadAttention(
                                            (q_lin): Linear(in_features=512, out_features=512, bias=True)
                                            (k_lin): Linear(in_features=512, out_features=512, bias=True)
                                            (v_lin): Linear(in_features=512, out_features=512, bias=True)
                                            (out_lin): Linear(in_features=512, out_features=512, bias=True)
                                          )
                                          (2): MultiHeadAttention(
                                            (q_lin): Linear(in_features=512, out_features=512, bias=True)
                                            (k_lin): Linear(in_features=512, out_features=512, bias=True)
                                            (v_lin): Linear(in_features=512, out_features=512, bias=True)
                                            (out_lin): Linear(in_features=512, out_features=512, bias=True)
                                          )
                                          (3): MultiHeadAttention(
                                            (q_lin): Linear(in_features=512, out_features=512, bias=True)
                                            (k_lin): Linear(in_features=512, out_features=512, bias=True)
                                            (v_lin): Linear(in_features=512, out_features=512, bias=True)
                                            (out_lin): Linear(in_features=512, out_features=512, bias=True)
                                          )
                                          (4): MultiHeadAttention(
                                            (q_lin): Linear(in_features=512, out_features=512, bias=True)
                                            (k_lin): Linear(in_features=512, out_features=512, bias=True)
                                            (v_lin): Linear(in_features=512, out_features=512, bias=True)
                                            (out_lin): Linear(in_features=512, out_features=512, bias=True)
                                          )
                                          (5): MultiHeadAttention(
                                            (q_lin): Linear(in_features=512, out_features=512, bias=True)
                                            (k_lin): Linear(in_features=512, out_features=512, bias=True)
                                            (v_lin): Linear(in_features=512, out_features=512, bias=True)
                                            (out_lin): Linear(in_features=512, out_features=512, bias=True)
                                          )
                                          (6): MultiHeadAttention(
                                            (q_lin): Linear(in_features=512, out_features=512, bias=True)
                                            (k_lin): Linear(in_features=512, out_features=512, bias=True)
                                            (v_lin): Linear(in_features=512, out_features=512, bias=True)
                                            (out_lin): Linear(in_features=512, out_features=512, bias=True)
                                          )
                                          (7): MultiHeadAttention(
                                            (q_lin): Linear(in_features=512, out_features=512, bias=True)
                                            (k_lin): Linear(in_features=512, out_features=512, bias=True)
                                            (v_lin): Linear(in_features=512, out_features=512, bias=True)
                                            (out_lin): Linear(in_features=512, out_features=512, bias=True)
                                          )
                                          (8): MultiHeadAttention(
                                            (q_lin): Linear(in_features=512, out_features=512, bias=True)
                                            (k_lin): Linear(in_features=512, out_features=512, bias=True)
                                            (v_lin): Linear(in_features=512, out_features=512, bias=True)
                                            (out_lin): Linear(in_features=512, out_features=512, bias=True)
                                          )
                                          (9): MultiHeadAttention(
                                            (q_lin): Linear(in_features=512, out_features=512, bias=True)
                                            (k_lin): Linear(in_features=512, out_features=512, bias=True)
                                            (v_lin): Linear(in_features=512, out_features=512, bias=True)
                                            (out_lin): Linear(in_features=512, out_features=512, bias=True)
                                          )
                                          (10): MultiHeadAttention(
                                            (q_lin): Linear(in_features=512, out_features=512, bias=True)
                                            (k_lin): Linear(in_features=512, out_features=512, bias=True)
                                            (v_lin): Linear(in_features=512, out_features=512, bias=True)
                                            (out_lin): Linear(in_features=512, out_features=512, bias=True)
                                          )
                                          (11): MultiHeadAttention(
                                            (q_lin): Linear(in_features=512, out_features=512, bias=True)
                                            (k_lin): Linear(in_features=512, out_features=512, bias=True)
                                            (v_lin): Linear(in_features=512, out_features=512, bias=True)
                                            (out_lin): Linear(in_features=512, out_features=512, bias=True)
                                          )
                                          (12): MultiHeadAttention(
                                            (q_lin): Linear(in_features=512, out_features=512, bias=True)
                                            (k_lin): Linear(in_features=512, out_features=512, bias=True)
                                            (v_lin): Linear(in_features=512, out_features=512, bias=True)
                                            (out_lin): Linear(in_features=512, out_features=512, bias=True)
                                          )
                                          (13): MultiHeadAttention(
                                            (q_lin): Linear(in_features=512, out_features=512, bias=True)
                                            (k_lin): Linear(in_features=512, out_features=512, bias=True)
                                            (v_lin): Linear(in_features=512, out_features=512, bias=True)
                                            (out_lin): Linear(in_features=512, out_features=512, bias=True)
                                          )
                                          (14): MultiHeadAttention(
                                            (q_lin): Linear(in_features=512, out_features=512, bias=True)
                                            (k_lin): Linear(in_features=512, out_features=512, bias=True)
                                            (v_lin): Linear(in_features=512, out_features=512, bias=True)
                                            (out_lin): Linear(in_features=512, out_features=512, bias=True)
                                          )
                                          (15): MultiHeadAttention(
                                            (q_lin): Linear(in_features=512, out_features=512, bias=True)
                                            (k_lin): Linear(in_features=512, out_features=512, bias=True)
                                            (v_lin): Linear(in_features=512, out_features=512, bias=True)
                                            (out_lin): Linear(in_features=512, out_features=512, bias=True)
                                          )
                                        )
                                        (proj): Linear(in_features=512, out_features=10570, bias=True)
                                      ): TransformerModel(
                                        (position_embeddings): Embedding(4096, 512, sparse=False, scale_grad_by_freq=False)
                                        (embeddings): Embedding(10570, 512, padding_idx=9, sparse=False, scale_grad_by_freq=False)
                                        (layer_norm_emb): LayerNorm(normalized_shape=[512], epsilon=1e-12)
                                        (attentions): LayerList(
                                          (0): MultiHeadAttention(
                                            (q_lin): Linear(in_features=512, out_features=512, bias=True)
                                            (k_lin): Linear(in_features=512, out_features=512, bias=True)
                                            (v_lin): Linear(in_features=512, out_features=512, bias=True)
                                            (out_lin): Linear(in_features=512, out_features=512, bias=True)
                                          )
                                          (1): MultiHeadAttention(
                                            (q_lin): Linear(in_features=512, out_features=512, bias=True)
                                            (k_lin): Linear(in_features=512, out_features=512, bias=True)
                                            (v_lin): Linear(in_features=512, out_features=512, bias=True)
                                            (out_lin): Linear(in_features=512, out_features=512, bias=True)
                                          )
                                          (2): MultiHeadAttention(
                                            (q_lin): Linear(in_features=512, out_features=512, bias=True)
                                            (k_lin): Linear(in_features=512, out_features=512, bias=True)
                                            (v_lin): Linear(in_features=512, out_features=512, bias=True)
                                            (out_lin): Linear(in_features=512, out_features=512, bias=True)
                                          )
                                          (3): MultiHeadAttention(
                                            (q_lin): Linear(in_features=512, out_features=512, bias=True)
                                            (k_lin): Linear(in_features=512, out_features=512, bias=True)
                                            (v_lin): Linear(in_features=512, out_features=512, bias=True)
                                            (out_lin): Linear(in_features=512, out_features=512, bias=True)
                                          )
                                          (4): MultiHeadAttention(
                                            (q_lin): Linear(in_features=512, out_features=512, bias=True)
                                            (k_lin): Linear(in_features=512, out_features=512, bias=True)
                                            (v_lin): Linear(in_features=512, out_features=512, bias=True)
                                            (out_lin): Linear(in_features=512, out_features=512, bias=True)
                                          )
                                          (5): MultiHeadAttention(
                                            (q_lin): Linear(in_features=512, out_features=512, bias=True)
                                            (k_lin): Linear(in_features=512, out_features=512, bias=True)
                                            (v_lin): Linear(in_features=512, out_features=512, bias=True)
                                            (out_lin): Linear(in_features=512, out_features=512, bias=True)
                                          )
                                          (6): MultiHeadAttention(
                                            (q_lin): Linear(in_features=512, out_features=512, bias=True)
                                            (k_lin): Linear(in_features=512, out_features=512, bias=True)
                                            (v_lin): Linear(in_features=512, out_features=512, bias=True)
                                            (out_lin): Linear(in_features=512, out_features=512, bias=True)
                                          )
                                          (7): MultiHeadAttention(
                                            (q_lin): Linear(in_features=512, out_features=512, bias=True)
                                            (k_lin): Linear(in_features=512, out_features=512, bias=True)
                                            (v_lin): Linear(in_features=512, out_features=512, bias=True)
                                            (out_lin): Linear(in_features=512, out_features=512, bias=True)
                                          )
                                          (8): MultiHeadAttention(
                                            (q_lin): Linear(in_features=512, out_features=512, bias=True)
                                            (k_lin): Linear(in_features=512, out_features=512, bias=True)
                                            (v_lin): Linear(in_features=512, out_features=512, bias=True)
                                            (out_lin): Linear(in_features=512, out_features=512, bias=True)
                                          )
                                          (9): MultiHeadAttention(
                                            (q_lin): Linear(in_features=512, out_features=512, bias=True)
                                            (k_lin): Linear(in_features=512, out_features=512, bias=True)
                                            (v_lin): Linear(in_features=512, out_features=512, bias=True)
                                            (out_lin): Linear(in_features=512, out_features=512, bias=True)
                                          )
                                          (10): MultiHeadAttention(
                                            (q_lin): Linear(in_features=512, out_features=512, bias=True)
                                            (k_lin): Linear(in_features=512, out_features=512, bias=True)
                                            (v_lin): Linear(in_features=512, out_features=512, bias=True)
                                            (out_lin): Linear(in_features=512, out_features=512, bias=True)
                                          )
                                          (11): MultiHeadAttention(
                                            (q_lin): Linear(in_features=512, out_features=512, bias=True)
                                            (k_lin): Linear(in_features=512, out_features=512, bias=True)
                                            (v_lin): Linear(in_features=512, out_features=512, bias=True)
                                            (out_lin): Linear(in_features=512, out_features=512, bias=True)
                                          )
                                          (12): MultiHeadAttention(
                                            (q_lin): Linear(in_features=512, out_features=512, bias=True)
                                            (k_lin): Linear(in_features=512, out_features=512, bias=True)
                                            (v_lin): Linear(in_features=512, out_features=512, bias=True)
                                            (out_lin): Linear(in_features=512, out_features=512, bias=True)
                                          )
                                          (13): MultiHeadAttention(
                                            (q_lin): Linear(in_features=512, out_features=512, bias=True)
                                            (k_lin): Linear(in_features=512, out_features=512, bias=True)
                                            (v_lin): Linear(in_features=512, out_features=512, bias=True)
                                            (out_lin): Linear(in_features=512, out_features=512, bias=True)
                                          )
                                          (14): MultiHeadAttention(
                                            (q_lin): Linear(in_features=512, out_features=512, bias=True)
                                            (k_lin): Linear(in_features=512, out_features=512, bias=True)
                                            (v_lin): Linear(in_features=512, out_features=512, bias=True)
                                            (out_lin): Linear(in_features=512, out_features=512, bias=True)
                                          )
                                          (15): MultiHeadAttention(
                                            (q_lin): Linear(in_features=512, out_features=512, bias=True)
                                            (k_lin): Linear(in_features=512, out_features=512, bias=True)
                                            (v_lin): Linear(in_features=512, out_features=512, bias=True)
                                            (out_lin): Linear(in_features=512, out_features=512, bias=True)
                                          )
                                        )
                                        (layer_norm1): LayerList(
                                          (0): LayerNorm(normalized_shape=[512], epsilon=1e-12)
                                          (1): LayerNorm(normalized_shape=[512], epsilon=1e-12)
                                          (2): LayerNorm(normalized_shape=[512], epsilon=1e-12)
                                          (3): LayerNorm(normalized_shape=[512], epsilon=1e-12)
                                          (4): LayerNorm(normalized_shape=[512], epsilon=1e-12)
                                          (5): LayerNorm(normalized_shape=[512], epsilon=1e-12)
                                          (6): LayerNorm(normalized_shape=[512], epsilon=1e-12)
                                          (7): LayerNorm(normalized_shape=[512], epsilon=1e-12)
                                          (8): LayerNorm(normalized_shape=[512], epsilon=1e-12)
                                          (9): LayerNorm(normalized_shape=[512], epsilon=1e-12)
                                          (10): LayerNorm(normalized_shape=[512], epsilon=1e-12)
                                          (11): LayerNorm(normalized_shape=[512], epsilon=1e-12)
                                          (12): LayerNorm(normalized_shape=[512], epsilon=1e-12)
                                          (13): LayerNorm(normalized_shape=[512], epsilon=1e-12)
                                          (14): LayerNorm(normalized_shape=[512], epsilon=1e-12)
                                          (15): LayerNorm(normalized_shape=[512], epsilon=1e-12)
                                        )
                                        (ffns): LayerList(
                                          (0): TransformerFFN(
                                            (midlin): LayerList()
                                            (lin1): Linear(in_features=512, out_features=2048, bias=True)
                                            (lin2): Linear(in_features=2048, out_features=512, bias=True)
                                          )
                                          (1): TransformerFFN(
                                            (midlin): LayerList()
                                            (lin1): Linear(in_features=512, out_features=2048, bias=True)
                                            (lin2): Linear(in_features=2048, out_features=512, bias=True)
                                          )
                                          (2): TransformerFFN(
                                            (midlin): LayerList()
                                            (lin1): Linear(in_features=512, out_features=2048, bias=True)
                                            (lin2): Linear(in_features=2048, out_features=512, bias=True)
                                          )
                                          (3): TransformerFFN(
                                            (midlin): LayerList()
                                            (lin1): Linear(in_features=512, out_features=2048, bias=True)
                                            (lin2): Linear(in_features=2048, out_features=512, bias=True)
                                          )
                                          (4): TransformerFFN(
                                            (midlin): LayerList()
                                            (lin1): Linear(in_features=512, out_features=2048, bias=True)
                                            (lin2): Linear(in_features=2048, out_features=512, bias=True)
                                          )
                                          (5): TransformerFFN(
                                            (midlin): LayerList()
                                            (lin1): Linear(in_features=512, out_features=2048, bias=True)
                                            (lin2): Linear(in_features=2048, out_features=512, bias=True)
                                          )
                                          (6): TransformerFFN(
                                            (midlin): LayerList()
                                            (lin1): Linear(in_features=512, out_features=2048, bias=True)
                                            (lin2): Linear(in_features=2048, out_features=512, bias=True)
                                          )
                                          (7): TransformerFFN(
                                            (midlin): LayerList()
                                            (lin1): Linear(in_features=512, out_features=2048, bias=True)
                                            (lin2): Linear(in_features=2048, out_features=512, bias=True)
                                          )
                                          (8): TransformerFFN(
                                            (midlin): LayerList()
                                            (lin1): Linear(in_features=512, out_features=2048, bias=True)
                                            (lin2): Linear(in_features=2048, out_features=512, bias=True)
                                          )
                                          (9): TransformerFFN(
                                            (midlin): LayerList()
                                            (lin1): Linear(in_features=512, out_features=2048, bias=True)
                                            (lin2): Linear(in_features=2048, out_features=512, bias=True)
                                          )
                                          (10): TransformerFFN(
                                            (midlin): LayerList()
                                            (lin1): Linear(in_features=512, out_features=2048, bias=True)
                                            (lin2): Linear(in_features=2048, out_features=512, bias=True)
                                          )
                                          (11): TransformerFFN(
                                            (midlin): LayerList()
                                            (lin1): Linear(in_features=512, out_features=2048, bias=True)
                                            (lin2): Linear(in_features=2048, out_features=512, bias=True)
                                          )
                                          (12): TransformerFFN(
                                            (midlin): LayerList()
                                            (lin1): Linear(in_features=512, out_features=2048, bias=True)
                                            (lin2): Linear(in_features=2048, out_features=512, bias=True)
                                          )
                                          (13): TransformerFFN(
                                            (midlin): LayerList()
                                            (lin1): Linear(in_features=512, out_features=2048, bias=True)
                                            (lin2): Linear(in_features=2048, out_features=512, bias=True)
                                          )
                                          (14): TransformerFFN(
                                            (midlin): LayerList()
                                            (lin1): Linear(in_features=512, out_features=2048, bias=True)
                                            (lin2): Linear(in_features=2048, out_features=512, bias=True)
                                          )
                                          (15): TransformerFFN(
                                            (midlin): LayerList()
                                            (lin1): Linear(in_features=512, out_features=2048, bias=True)
                                            (lin2): Linear(in_features=2048, out_features=512, bias=True)
                                          )
                                        )
                                        (layer_norm2): LayerList(
                                          (0): LayerNorm(normalized_shape=[512], epsilon=1e-12)
                                          (1): LayerNorm(normalized_shape=[512], epsilon=1e-12)
                                          (2): LayerNorm(normalized_shape=[512], epsilon=1e-12)
                                          (3): LayerNorm(normalized_shape=[512], epsilon=1e-12)
                                          (4): LayerNorm(normalized_shape=[512], epsilon=1e-12)
                                          (5): LayerNorm(normalized_shape=[512], epsilon=1e-12)
                                          (6): LayerNorm(normalized_shape=[512], epsilon=1e-12)
                                          (7): LayerNorm(normalized_shape=[512], epsilon=1e-12)
                                          (8): LayerNorm(normalized_shape=[512], epsilon=1e-12)
                                          (9): LayerNorm(normalized_shape=[512], epsilon=1e-12)
                                          (10): LayerNorm(normalized_shape=[512], epsilon=1e-12)
                                          (11): LayerNorm(normalized_shape=[512], epsilon=1e-12)
                                          (12): LayerNorm(normalized_shape=[512], epsilon=1e-12)
                                          (13): LayerNorm(normalized_shape=[512], epsilon=1e-12)
                                          (14): LayerNorm(normalized_shape=[512], epsilon=1e-12)
                                          (15): LayerNorm(normalized_shape=[512], epsilon=1e-12)
                                        )
                                        (layer_norm15): LayerList(
                                          (0): LayerNorm(normalized_shape=[512], epsilon=1e-12)
                                          (1): LayerNorm(normalized_shape=[512], epsilon=1e-12)
                                          (2): LayerNorm(normalized_shape=[512], epsilon=1e-12)
                                          (3): LayerNorm(normalized_shape=[512], epsilon=1e-12)
                                          (4): LayerNorm(normalized_shape=[512], epsilon=1e-12)
                                          (5): LayerNorm(normalized_shape=[512], epsilon=1e-12)
                                          (6): LayerNorm(normalized_shape=[512], epsilon=1e-12)
                                          (7): LayerNorm(normalized_shape=[512], epsilon=1e-12)
                                          (8): LayerNorm(normalized_shape=[512], epsilon=1e-12)
                                          (9): LayerNorm(normalized_shape=[512], epsilon=1e-12)
                                          (10): LayerNorm(normalized_shape=[512], epsilon=1e-12)
                                          (11): LayerNorm(normalized_shape=[512], epsilon=1e-12)
                                          (12): LayerNorm(normalized_shape=[512], epsilon=1e-12)
                                          (13): LayerNorm(normalized_shape=[512], epsilon=1e-12)
                                          (14): LayerNorm(normalized_shape=[512], epsilon=1e-12)
                                          (15): LayerNorm(normalized_shape=[512], epsilon=1e-12)
                                        )
                                        (encoder_attn): LayerList(
                                          (0): MultiHeadAttention(
                                            (q_lin): Linear(in_features=512, out_features=512, bias=True)
                                            (k_lin): Linear(in_features=512, out_features=512, bias=True)
                                            (v_lin): Linear(in_features=512, out_features=512, bias=True)
                                            (out_lin): Linear(in_features=512, out_features=512, bias=True)
                                          )
                                          (1): MultiHeadAttention(
                                            (q_lin): Linear(in_features=512, out_features=512, bias=True)
                                            (k_lin): Linear(in_features=512, out_features=512, bias=True)
                                            (v_lin): Linear(in_features=512, out_features=512, bias=True)
                                            (out_lin): Linear(in_features=512, out_features=512, bias=True)
                                          )
                                          (2): MultiHeadAttention(
                                            (q_lin): Linear(in_features=512, out_features=512, bias=True)
                                            (k_lin): Linear(in_features=512, out_features=512, bias=True)
                                            (v_lin): Linear(in_features=512, out_features=512, bias=True)
                                            (out_lin): Linear(in_features=512, out_features=512, bias=True)
                                          )
                                          (3): MultiHeadAttention(
                                            (q_lin): Linear(in_features=512, out_features=512, bias=True)
                                            (k_lin): Linear(in_features=512, out_features=512, bias=True)
                                            (v_lin): Linear(in_features=512, out_features=512, bias=True)
                                            (out_lin): Linear(in_features=512, out_features=512, bias=True)
                                          )
                                          (4): MultiHeadAttention(
                                            (q_lin): Linear(in_features=512, out_features=512, bias=True)
                                            (k_lin): Linear(in_features=512, out_features=512, bias=True)
                                            (v_lin): Linear(in_features=512, out_features=512, bias=True)
                                            (out_lin): Linear(in_features=512, out_features=512, bias=True)
                                          )
                                          (5): MultiHeadAttention(
                                            (q_lin): Linear(in_features=512, out_features=512, bias=True)
                                            (k_lin): Linear(in_features=512, out_features=512, bias=True)
                                            (v_lin): Linear(in_features=512, out_features=512, bias=True)
                                            (out_lin): Linear(in_features=512, out_features=512, bias=True)
                                          )
                                          (6): MultiHeadAttention(
                                            (q_lin): Linear(in_features=512, out_features=512, bias=True)
                                            (k_lin): Linear(in_features=512, out_features=512, bias=True)
                                            (v_lin): Linear(in_features=512, out_features=512, bias=True)
                                            (out_lin): Linear(in_features=512, out_features=512, bias=True)
                                          )
                                          (7): MultiHeadAttention(
                                            (q_lin): Linear(in_features=512, out_features=512, bias=True)
                                            (k_lin): Linear(in_features=512, out_features=512, bias=True)
                                            (v_lin): Linear(in_features=512, out_features=512, bias=True)
                                            (out_lin): Linear(in_features=512, out_features=512, bias=True)
                                          )
                                          (8): MultiHeadAttention(
                                            (q_lin): Linear(in_features=512, out_features=512, bias=True)
                                            (k_lin): Linear(in_features=512, out_features=512, bias=True)
                                            (v_lin): Linear(in_features=512, out_features=512, bias=True)
                                            (out_lin): Linear(in_features=512, out_features=512, bias=True)
                                          )
                                          (9): MultiHeadAttention(
                                            (q_lin): Linear(in_features=512, out_features=512, bias=True)
                                            (k_lin): Linear(in_features=512, out_features=512, bias=True)
                                            (v_lin): Linear(in_features=512, out_features=512, bias=True)
                                            (out_lin): Linear(in_features=512, out_features=512, bias=True)
                                          )
                                          (10): MultiHeadAttention(
                                            (q_lin): Linear(in_features=512, out_features=512, bias=True)
                                            (k_lin): Linear(in_features=512, out_features=512, bias=True)
                                            (v_lin): Linear(in_features=512, out_features=512, bias=True)
                                            (out_lin): Linear(in_features=512, out_features=512, bias=True)
                                          )
                                          (11): MultiHeadAttention(
                                            (q_lin): Linear(in_features=512, out_features=512, bias=True)
                                            (k_lin): Linear(in_features=512, out_features=512, bias=True)
                                            (v_lin): Linear(in_features=512, out_features=512, bias=True)
                                            (out_lin): Linear(in_features=512, out_features=512, bias=True)
                                          )
                                          (12): MultiHeadAttention(
                                            (q_lin): Linear(in_features=512, out_features=512, bias=True)
                                            (k_lin): Linear(in_features=512, out_features=512, bias=True)
                                            (v_lin): Linear(in_features=512, out_features=512, bias=True)
                                            (out_lin): Linear(in_features=512, out_features=512, bias=True)
                                          )
                                          (13): MultiHeadAttention(
                                            (q_lin): Linear(in_features=512, out_features=512, bias=True)
                                            (k_lin): Linear(in_features=512, out_features=512, bias=True)
                                            (v_lin): Linear(in_features=512, out_features=512, bias=True)
                                            (out_lin): Linear(in_features=512, out_features=512, bias=True)
                                          )
                                          (14): MultiHeadAttention(
                                            (q_lin): Linear(in_features=512, out_features=512, bias=True)
                                            (k_lin): Linear(in_features=512, out_features=512, bias=True)
                                            (v_lin): Linear(in_features=512, out_features=512, bias=True)
                                            (out_lin): Linear(in_features=512, out_features=512, bias=True)
                                          )
                                          (15): MultiHeadAttention(
                                            (q_lin): Linear(in_features=512, out_features=512, bias=True)
                                            (k_lin): Linear(in_features=512, out_features=512, bias=True)
                                            (v_lin): Linear(in_features=512, out_features=512, bias=True)
                                            (out_lin): Linear(in_features=512, out_features=512, bias=True)
                                          )
                                        )
                                        (proj): Linear(in_features=512, out_features=10570, bias=True)
                                      )
INFO - 01/27/26 19:45:43 - 0:00:21 - Number of parameters (embedder): 6843712
INFO - 01/27/26 19:45:43 - 0:00:21 - Number of parameters (encoder): 6305792
INFO - 01/27/26 19:45:43 - 0:00:21 - Number of parameters (decoder): 80196938
INFO - 01/27/26 19:47:51 - 0:00:00 - ============ Initialized logger ============
…
